trained_model.pth (torch, 115809 bytes, 50 tensors)

conv1.weight f4 [8, 2, 5, 5]
0.36867318 -0.007201553 0.01174358 -0.12621726 -0.45084697 0.098284766 -0.004682833 -0.030150745
-0.47419307 -0.0015618451 -0.00894077 0.33629283 -0.2743512 -0.2220075 0.16872934 -0.2305826
-0.15646523 0.020493774 -0.083831765 -0.20068105 -0.014565406 -0.30855936 -0.18726382 0.07742383
0.017761454 -0.03429473 -0.09497981 -0.012009886 0.08129061 0.16143692 0.026424084 0.036351264
-0.062804475 0.02635993 0.1828596 0.43843186 -0.18956201 -0.09438705 0.032095928 -0.29067484
0.106796116 0.14096844 0.008136415 -0.018484864 0.020249533 0.4930001 0.23002873 0.33593693
-0.030567335 -0.15801321 0.24029367 0.11322157 -0.037616108 -0.18604545 -0.29037833 -0.5412714
-0.1638428 0.16498539 -0.36185074 -0.082604505 -0.005172216 0.198286 0.06075254 -0.2829045
-0.13312706 -0.053522356 -0.13331199 0.27995184 0.060003523 -0.1602755 0.11667713 0.102317415
-0.04076983 -0.110908195 0.39540482 -0.19933099 0.12634331 -0.3147708 -0.14015426 0.27690384
-0.033442922 -0.17292985 -0.081245616 -0.44426087 -0.1628662 -0.039534416 -0.10395023 -0.1455541
0.03322907 0.0011615466 0.23696974 0.12857376 -0.12345921 0.016167684 0.0042994665 0.04900476
0.13720869 0.2944413 0.10661774 -0.05676712 0.13111593 0.0026910945 0.2117869 0.19752058
0.232077 0.14005922 -0.3120097 -0.025659766 -0.11006715 -0.339024 -0.26990724 -0.1723993
-0.2556668 -0.17008469 -0.35267055 -0.18492068 -0.20647125 0.019902032 0.12692788 -0.03668531
0.28916582 0.000776542 -0.040648878 0.06122463 0.014501787 0.2547298 0.24207455 0.0229071
0.26830676 -0.22367536 0.24929617 -0.12493839 0.032722607 -0.2382604 0.03561881 -0.09993766
-0.532239 -0.35077664 -0.12631318 0.22622716 -0.17187409 -0.17318273 -0.102193505 0.13007481
-0.012914447 -0.010826789 0.02555692 0.09915971 0.06920164 0.20252356 0.02243641 0.044889145
-0.16631778 -0.26841703 0.17071435 -0.050067395 -0.11556877 0.030642103 -0.06675346 -0.29066506
-0.013698313 -0.11471747 -0.040682573 0.037991703 0.053536274 0.027138539 -0.08418542 0.09591151
0.5379895 -0.0019258586 0.110987805 0.4371363 0.2373719 0.23025751 0.091976196 -0.28137234
-0.15618931 -0.24519917 -0.14296253 -0.12085424 0.31050637 -0.071466394 0.17619433 -0.31605753
0.12961276 -0.046623733 -0.09789156 0.13723484 0.004641148 0.0741459 0.07564502 0.1819842
-0.1559505 0.1942194 0.078584105 0.25817016 0.10770658 0.18434434 -0.3132594 0.32787475
-0.05608614 -0.23981918 -0.07298052 0.09942158 0.13723671 0.20194799 -0.14847328 -0.094745085
0.15931728 -0.23028558 0.12245551 0.00028978274 -0.039273288 0.30301887 -0.1814291 0.11560419
0.14326063 0.012807293 -0.09901185 0.07656773 -0.18138455 -0.013456293 0.32126686 0.12764962
-0.005398615 0.12645768 -0.006238662 0.12694646 0.33694988 0.058748756 -0.27061725 -0.2219066
0.117908955 -0.068475135 -0.25324205 -0.17417176 -0.023141243 0.10812122 -0.27123263 -0.31963292
-0.21444294 -0.4165757 0.0644426 0.07094252 -0.028644577 -0.08726793 -0.29574755 -0.096149124
0.022601869 -0.06472265 -0.32191363 0.1797641 0.2788914 -0.14643687 -0.17824481 0.026857402
00000000: bbc2 bc3e 01fb ebbb 2568 403c 193f 01be
00000010: 6ad5 e6be 8649 c93d 7372 99bb b2fe f6bc
00000020: 6fc9 f2be d3b6 ccba 4f7c 12bc 932e ac3e
00000030: c377 8cbe ef55 63be 62c7 2c3e d81d 6cbe
00000040: 6c38 20be 8fe2 a73c fdaf abbd 557f 4dbe
00000050: bea3 6ebc 7efb 9dbe 16c2 3fbe 6390 9e3d
00000060: 7880 913c a178 0cbd c684 c2bd 1dc5 44bc
00000070: b17b a63d b84f 253e 5277 d83c 10e5 143d
00000080: a29f 80bd c8f0 d73c 8c3f 3b3e 247a e03e
00000090: 8b1c 42be ff4d c1bd 0577 033d 55d3 94be
000000a0: ecb7 da3d 085a 103e 994e 053c 926d 97bc
000000b0: 59e2 a53c 826a fc3e a78c 6b3e edff ab3e
000000c0: 5968 fabc 37ce 21be 8b0f 763e b6e0 e73d
000000d0: 5913 1abd b382 3ebe 78ac 94be c390 0abf
000000e0: 68c6 27be eef1 283e 8044 b9be 8d2c a9bd
000000f0: b17b a9bb 7c0b 4b3e a8d7 783d dcd8 90be
00000100: 7652 08be 423a 5bbd f082 08be d955 8f3e
00000110: 41c6 753d 431f 24be 6bf4 ee3d cb8b d13d
00000120: 44fe 26bd d623 e3bd 8072 ca3e 6c1d 4cbe
00000130: 2460 013e a329 a1be 9984 0fbe 57c6 8d3e
00000140: 72fb 08bd 8614 31be 1a64 a6bd 2976 e3be
00000150: 66c6 26be d7ee 21bd dce3 d4bd 220c 15be
00000160: 351b 083d 093f 983a 32a8 723e d7a8 033e
00000170: 2fd8 fcbd 1772 843c 8ae2 8c3b 37b9 483d
00000180: 6f80 0c3e 03c1 963e 675a da3d a484 68bd
00000190: 4143 063e 135d 303b aade 583e d642 4a3e
000001a0: 98a5 6d3e af6b 0f3e bcbf 9fbe 6e34 d2bc
000001b0: e36a e1bd 8e94 adbe 4831 8abe 7189 30be
000001c0: c2e6 82be ae2a 2ebe 3c91 b4be d95b 3dbe
000001d0: 336d 53be 9609 a33c 62f9 013e 5643 16bd
000001e0: 8b0d 943e da90 4b3a 707f 26bd adc6 7a3d
000001f0: e798 6d3c f26b 823e 64e2 773e aca7 bb3c
00000200: 815f 893e 270b 65be 7f47 7f3e b3df ffbd
00000210: 2408 063d 89fa 73be 08e5 113d 1eac ccbd
00000220: d140 08bf ff98 b3be 3e58 01be 18a8 673e
00000230: c3ff 2fbe d056 31be d44a d1bd 5532 053e
00000240: 1e97 53bc d862 31bc bf5c d13c 3f14 cb3d
00000250: 97b9 8d3d 5662 4f3e 90cc b73c aedd 373d
00000260: 354f 2abe f56d 89be becf 2e3e 7813 4dbd
00000270: 52af ecbd 2605 fb3c 0ab6 88bd 0dd2 94be
00000280: e46e 60bc fef0 eabd c5a2 26bd 309d 1b3d
00000290: da48 5b3d a451 de3c 6869 acbd 416d c43d
000002a0: aeb9 093f 176d fcba 934d e33d 54d0 df3e
000002b0: 9f11 733e a0c8 6b3e 045e bc3d 0910 90be
000002c0: 17f0 1fbe 7e15 7bbe c564 12be 6e82 f7bd
000002d0: b1fa 9e3e f95c 92bd 496c 343e 4bd2 a1be
000002e0: 35b9 043e 87f8 3ebd 5f7b c8bd 4a87 0c3e
000002f0: c514 983b ced9 973d c7eb 9a3d 115a 3a3e
00000300: 7db1 1fbe 73e1 463e b4f0 a03d e12e 843e
00000310: 4495 dc3d c3c4 3c3e 8963 a0be 33df a73e
00000320: 95ba 65bd 2993 75be d076 95bd 8b9d cb3d
00000330: c887 0c3e 74cb 4e3e 6109 18be b609 c2bd
00000340: 1224 233e fccf 6bbe f4c9 fa3d fbed 9739
00000350: 07dd 20bd 4a25 9b3e 8dc8 39be e4c1 ec3d
00000360: eab2 123e aed5 513c bac6 cabd 8bcf 9c3d
00000370: dfbc 39be c977 5cbc 177d a43e 95b6 023e
00000380: dde6 b0bb 1f7e 013e b16d ccbb 41fe 013e
00000390: b284 ac3e 89a2 703d 588e 8abe 7c3b 63be
000003a0: 407a f13d b13c 8cbd f1a8 81be 155a 32be
000003b0: b492 bdbc a86e dd3d 01df 8abe eda6 a3be
000003c0: ee96 5bbe 6949 d5be 7bfa 833d 504a 913d
000003d0: 08a8 eabc 87b9 b2bd 396c 97be d5e9 c4bd
000003e0: 8e27 b93c 4f8d 84bd ddd1 a4be 1514 383e
000003f0: dbca 8e3e 8cf3 15be cf85 36be 0e04 dc3c

conv1.bias f4 [8]
-0.010760728 0.06626414 0.026771517 -0.034824252 0.017370334 0.04916758 -0.05237676 0.090913594
00000000: c44d 30bc 7eb5 873d f14f db3c e0a3 0ebd
00000010: 3b4c 8e3c f263 493d 0389 56bd e830 ba3d

bn1.weight f4 [8]
0.95389533 0.9539951 0.952622 0.93831974 0.9688843 1.0360174 1.0945964 0.95551866
00000000: 7c32 743f 0639 743f 09df 733f b935 703f
00000010: cd08 783f 389c 843f bc1b 8c3f df9c 743f

bn1.bias f4 [8]
-0.03200826 -0.042213187 -0.06104802 0.15954489 -0.08797966 -0.055550106 0.008800253 -0.03399562
00000000: 181b 03bd bce7 2cbd 7d0d 7abd bc5f 233e
00000010: ae2e b4bd 8288 63bd f02e 103c fe3e 0bbd

bn1.running_mean f4 [8]
0.19108889 0.62805104 0.6339647 0.49971762 0.542409 0.5236835 0.5061088 0.26385126
00000000: ceac 433e f4c7 203f 834b 223f fdda ff3e
00000010: 51db 0a3f 1f10 063f 5990 013f 8317 873e

bn1.running_var f4 [8]
0.109930046 0.9864956 0.9418818 0.6044682 0.6824122 0.49230993 0.50625813 0.17608061
00000000: 0123 e13d fa8a 7c3f 2a1f 713f 6ebe 1a3f
00000010: 91b2 2e3f 0c10 fc3e 229a 013f 7a4e 343e

conv2.weight f4 [16, 8, 3, 3]
-0.17031446 -0.092225514 -0.28497592 -0.05483542 -0.2847396 -0.15119934 -0.058160316 -0.017744202
0.198001 -0.028185569 -0.34688956 -0.15167105 0.036007516 -0.2710273 -0.096380614 -0.1123057
-0.0677689 0.11859758 -0.09422917 -0.13738088 -0.04122979 0.22471914 -0.04937167 0.019631013
-0.12003011 0.2592001 0.10859877 0.21624605 0.112579644 0.08253867 0.12754568 0.031545725
-0.03313133 -0.1315638 -0.07033569 -0.018391939 -0.051815003 0.25670373 0.20500877 -0.0028936667
-0.038337447 0.020417256 -0.26555339 -0.12190544 0.0026731507 -0.07619043 0.22135308 0.0958032
-0.046363126 -0.07537767 -0.18211566 -0.107837364 -0.101684175 -0.3560806 0.009036769 -0.19406176
0.024713218 0.34395072 0.09954188 0.06783978 0.16617331 -0.29427636 0.069018625 0.16636035
0.1520085 0.08030862 0.10950424 0.3079077 0.13726537 0.07328386 -0.041718677 0.14406966
-0.0786057 -0.48144546 0.2083272 0.06440952 0.13069767 -0.36109373 -0.27560705 -0.27950847
-0.19750823 -0.0495077 0.17864197 0.08951454 -0.04749014 0.23033953 0.088713884 -0.22929427
-0.20469151 -0.0761856 -0.24717747 0.06273679 -0.046667222 -0.09233702 0.20550857 -0.09253905
0.021041896 -0.093981154 -0.11388299 0.13221164 -0.04672359 0.15204956 -0.025543014 0.08199837
0.08818708 -0.054184526 -0.023687541 -0.09643675 0.11420957 0.0055057635 -6.837177e-05 0.055291504
0.047091596 0.17395045 -0.099819705 -0.040369324 -0.07249987 0.061233792 0.097638376 0.046693403
-0.10770547 0.03095076 -0.1289854 -0.04155806 -0.027018223 -0.096309766 -0.3366024 -0.030291017
-0.48613748 -0.6289935 -0.2265675 -0.063633926 -0.18706958 -0.03951014 -0.19451895 0.11463637
-0.3312286 0.2157497 0.18293841 -0.1320415 0.14272957 -0.1074522 -0.08967517 0.19965316
0.1316812 -0.013697159 -0.15906727 -0.0021926286 0.33185136 0.09784191 -0.250894 -0.151324
0.14473543 0.31452104 0.16257708 -0.07482791 0.07915827 -0.2657552 -0.099192046 -0.08056976
0.1289578 -0.13115652 -0.052759152 -0.101007216 -0.50522923 0.0804377 -0.12789054 -0.09320191
-0.24860862 0.18494424 -0.31522477 0.0329341 -0.08682298 -0.17987597 0.13189076 -0.039378013
0.05692192 0.40534085 0.124121435 0.27449045 -0.3793491 -0.32085773 0.21077728 -0.030938547
-0.33491775 0.06565362 0.21982914 0.19044341 -0.09656648 -0.17495638 -0.28577098 -0.10486483
-0.061265618 -0.046942085 0.04438289 -0.13869749 -0.06583127 0.44635344 0.10611721 -0.21682064
-0.40260503 -0.059754044 -0.20508312 0.26977298 0.19490005 0.090077974 -0.08945442 0.10601981
-0.15784499 -0.29046208 0.04063954 0.10220391 0.06244538 -0.11889737 0.018408304 0.20091034
-0.11044985 -0.0924245 -0.20973498 -0.09112851 -0.064676106 -0.11560786 -0.032866817 -0.1647772
-0.102793224 0.094264306 0.08264718 0.25464323 -0.08185885 -0.104994 0.18477617 0.033921123
-0.056359496 -0.13216656 -0.034099013 0.32131326 0.071670756 -0.07199929 0.3928065 0.07457756
0.13889675 -0.2856407 -0.10591637 -0.0052276338 -0.033104464 -0.25778848 0.22981596 -0.1122126
-0.09286639 -0.020977834 -0.0667338 0.2949181 -0.19351493 0.012991837 -0.1870714 0.15052913
00000000: ea66 2ebe bbe0 bcbd 5de8 91be 1b9b 60bd
00000010: 64c9 91be 00d4 1abe 8339 6ebd 4a5c 91bc
00000020: c6c0 4a3e 6ce5 e6bc 829b b1be a84f 1bbe
00000030: 9e7c 133d 17c4 8abe 3363 c5bd 8800 e6bd
00000040: 6cca 8abd 4ae3 f23d 39fb c0bd 93ad 0cbe
00000050: 91e0 28bd c61c 663e f339 4abd 38d1 a03c
00000060: 59d2 f5bd e0b5 843e 0869 de3d 9b6f 5d3e
00000070: 2890 e63d 090a a93d 569b 023e 1736 013d
00000080: b8b4 07bd a9b8 06be 290c 90bd b1aa 96bc
00000090: f83b 54bd ac6e 833e d2ed 513e aca3 3dbb
000000a0: ba07 1dbd 1742 a73c 9df6 87be 8fa9 f9bd
000000b0: 0730 2f3b ba09 9cbd 62aa 623e 7834 c43d
000000c0: 43e7 3dbd 9c5f 9abd 877c 3abe d6d9 dcbd
000000d0: cb3f d0bd 3250 b6be f50e 143c 20b8 46be
000000e0: 6073 ca3c 4f1a b03e 9ddc cb3d 95ef 8a3d
000000f0: 5629 2a3e 64ab 96be a359 8d3d 5e5a 2a3e
00000100: 1ea8 1b3e d978 a43d c243 e03d 14a6 9d3e
00000110: 4b8f 0c3e d915 963d 34e1 2abd ff86 133e
00000120: 06fc a0bd 0580 f6be ba53 553e 23e9 833d
00000130: 9cd5 053e 47e1 b8be 5e1c 8dbe bc1b 8fbe
00000140: 993f 4abe 96c8 4abd eced 363e 6653 b73d
00000150: 0585 42bd 20de 6b3e a0af b53d 1ecc 6abe
00000160: a79a 51be 3207 9cbd 171c 7dbe 257c 803d
00000170: 2126 3fbd 311b bdbd d770 523e 1d85 bdbd
00000180: 0e60 ac3c 3179 c0bd 7c3b e9bd 7d62 073e
00000190: 3c61 3fbd e1b2 1b3e 953f d1bc c3ee a73d
000001a0: 6e9b b43d 98f0 5dbd 600c c2bc a180 c5bd
000001b0: b5e6 e93d b169 b43b d162 8fb8 5879 623d
000001c0: 1ee3 403d 1120 323e 466e ccbd 4e5a 25bd
000001d0: d07a 94bd 49d0 7a3d a1f6 c73d 9541 3f3d
000001e0: af94 dcbd 738c fd3c c014 04be c938 2abd
000001f0: 5255 ddbc 0e3e c5bd 2657 acbe de24 f8bc
00000200: 03e7 f8be b805 21bf 5001 68be 8152 82bd
00000210: 2b8f 3fbe 62d5 21bd fa2f 47be 79c6 ea3d
00000220: cc96 a9be 7ded 5c3e 3554 3b3e e335 07be
00000230: b327 123e e60f dcbd 9ea7 b7bd e171 4c3e
00000240: 70d7 063e 0c6a 60bc 88e2 22be 34b2 0fbb
00000250: 6ce8 a93e 5761 c83d 2e75 80be aef4 1abe
00000260: 8635 143e e708 a13e 9b7a 263e 603f 99bd
00000270: bb1d a23d 1111 88be 3325 cbbd c201 a5bd
00000280: 830d 043e e54d 06be fb19 58bd dfdc cebd
00000290: b456 01bf 85bc a43d bdf5 02be a5e0 bebd
000002a0: 4293 7ebe 0662 3d3e 2465 a1be e8e5 063d
000002b0: 3fd0 b1bd 6831 38be 5f0e 073e d74a 21bd
000002c0: f626 693d d688 cf3e 6133 fe3d 038a 8c3e
000002d0: 0c3a c2be 7747 a4be 00d6 573e d672 fdbc
000002e0: 577a abbe 6875 863d e41a 613e 9903 433e
000002f0: a6c4 c5bd c427 33be 9350 92be 5fc3 d6bd
00000300: a8f1 7abd 5846 40bd d5ca 353d b706 0ebe
00000310: 8bd2 86bd 7088 e43e fb53 d93d 3b06 5ebe
00000320: 3f22 cebe a8c0 74bd 4f01 52be af1f 8a3e
00000330: e193 473e cd7a b83d e133 b7bd ea20 d93d
00000340: 1ea2 21be 72b7 94be a575 263d 4950 d13d
00000350: bac6 7f3d 7780 f3bd 03cd 963c 71bb 4d3e
00000360: 8833 e2bd 0e49 bdbd c4c4 56be 96a1 babd
00000370: e874 84bd d0c3 ecbd 5b9f 06bd 5bbb 28be
00000380: 4185 d2bd a50d c13d ed42 a93d 9960 823e
00000390: 9da5 a7bd 1807 d7bd f735 3d3e e0f0 0a3d
000003a0: 37d9 66bd ac56 07be 68ab 0bbd 2c83 a43e
000003b0: 1ec8 923d 5d74 93bd ef1d c93e 1fbc 983d
000003c0: f33a 0e3e 7f3f 92be afea d8bd 924c abbb
000003d0: 8c98 07bd dafc 83be e054 6b3e b8cf e5bd
000003e0: bc30 bebd b5d9 abbc bbab 88bd 81ff 963e
000003f0: c728 46be b7db 543c a58f 3fbe 4f24 1a3e

conv2.bias f4 [16]
-0.012353165 -0.042419434 0.14715272 0.004348682 -0.05554386 -0.082022965 -0.020188 -0.05210198
-0.18151058 -0.03164459 -0.10959721 -0.09289169 0.07392541 0.015498443 -0.034942813 -0.075492136
00000000: ee64 4abc 00c0 2dbd 34af 163e 637f 8e3b
00000010: f581 63bd a8fb a7bd 4e61 a5bc e368 55bd
00000020: e9dd 39be c29d 01bd 8174 e0bd 003e bebd
00000030: 3566 973d 2eed 7d3c 3220 0fbd 9f9b 9abd

bn2.weight f4 [16]
0.96906567 0.9284656 1.0143529 1.0045996 0.9400434 1.1576477 0.93181276 0.93339944
0.97341424 0.9455465 1.1153758 0.9414652 0.9511161 0.9764021 1.1308126 0.986269
00000000: b014 783f ecaf 6d3f 51d6 813f b896 803f
00000010: afa6 703f cd2d 943f 488b 6e3f 44f3 6e3f
00000020: ad31 793f 560f 723f a2c4 8e3f dd03 713f
00000030: 587c 733f 7df5 793f 78be 903f 207c 7c3f

bn2.bias f4 [16]
0.061600853 0.11021385 -0.074227124 -0.106170565 0.20855148 -0.0649253 -0.21273866 0.04947716
-0.016150828 -0.12998228 0.10544994 0.1205747 0.04535789 -0.14352603 0.027167358 -0.0010666387
00000000: 2d51 7c3d cdb7 e13d 6404 98bd f46f d9bd
00000010: 858e 553e 8ef7 84bd 2ad8 59be 90a8 4a3d
00000020: be4e 84bc 131a 05be 23f6 d73d deef f63d
00000030: 32c9 393d 7df8 12be 148e de3c 75ce 8bba

bn2.running_mean f4 [16]
0.74442756 0.70880955 0.8364789 0.6457749 0.54491776 0.4636192 0.9926151 0.47840425
0.2870698 0.9528972 0.59492856 0.45991656 1.005601 0.5592494 0.4404361 0.5922786
00000000: ce92 3e3f 8b74 353f 7b23 563f 8151 253f
00000010: bb7f 0b3f 7f5f ed3e 061c 7e3f 67f1 f43e
00000020: d0fa 923e 12f1 733f 3d4d 183f 2f7a eb3e
00000030: 89b7 803f f82a 0f3f d780 e13e 929f 173f

bn2.running_var f4 [16]
0.8058977 0.72180176 0.9045805 0.6071614 1.1803843 0.75156975 2.3134322 0.7900789
0.5259307 3.2884355 1.5321522 0.47758442 1.028566 1.0259153 0.6447583 0.49066165
00000000: 504f 4e3f 00c8 383f 9692 673f ee6e 1b3f
00000010: d516 973f e066 403f 460f 1440 9c42 4a3f
00000020: 65a3 063f ba75 5240 901d c43f f285 f43e
00000030: 0da8 833f 3151 833f e10e 253f 0138 fb3e

conv3.weight f4 [32, 16, 3, 3]
0.11039869 0.1310395 0.007586437 -0.060960256 -0.08322799 0.22891116 0.05284605 0.132669
-0.17420356 -0.21884817 0.059190106 -0.161563 -0.27984974 0.06387895 0.14209336 -0.08767805
-0.018320523 0.06039919 -0.06727371 0.09883239 0.04631354 -0.12711653 0.22014266 0.006102675
-0.06741068 -0.12006332 0.3277057 -0.17083465 -0.14174771 0.1824568 0.013955477 -0.17401509
-0.18182483 0.11677215 -0.079162516 -0.07386818 -0.0766054 -0.082457826 0.054986704 0.057340797
-0.21520996 -0.10124058 -0.042385947 -0.07184595 -0.18239704 -0.022601688 0.22783007 -0.010701162
0.29126015 0.24711452 -0.07762165 0.2987758 -0.18865427 0.123421684 0.046794966 0.05721721
0.14727113 -0.13110094 0.05511322 0.032020323 -0.07875156 0.09498112 0.2439878 -0.0679336
0.054665025 -0.070110984 -0.19014722 -0.06651781 -0.13448854 0.02379221 0.0026935355 -0.35906345
-0.16278867 -0.10468847 0.23014931 0.018006047 0.07181009 -0.07894289 -0.05124017 -0.14190881
-0.17077716 -0.07569533 -0.08016434 0.106679894 -0.023038452 0.01432676 -0.16478643 -0.0030243327
0.06458193 -0.07143426 0.21043639 -0.07694545 0.047578663 0.079185076 -0.30304122 -0.2292505
0.06822609 -0.043984987 -0.34236455 0.03755886 -0.06184807 -0.036448784 -0.026330864 -0.023990965
0.032991786 0.096922286 0.04293507 -0.18720211 -0.14089845 0.18253882 -0.18535969 -0.18807088
0.02658818 -0.070109166 -0.17467265 0.042941477 0.111180626 0.22619621 0.20417565 0.08995723
0.22498421 0.09643047 -0.35704854 -0.08684473 0.004714747 0.18264106 -0.05456286 -0.08057654
0.003823082 0.018734278 0.12767585 0.030094814 -0.10332207 -0.11088482 0.09434555 -0.20429087
0.1987541 -0.011210372 -0.27663866 0.035750207 0.44208238 -0.13871512 -0.053455986 -0.03869511
0.12920967 0.017660903 -0.05895514 -0.003356953 -0.022499131 0.13238996 0.006200729 0.066047855
0.079350546 -0.01725203 -0.26637053 0.009983875 -0.06736598 -0.16814996 -0.06275234 -0.08855128
-0.2473862 -0.25649613 0.031729538 -0.13477996 0.18173642 0.057454135 0.102971695 0.037763115
0.10752247 -0.21720403 0.004865465 0.11818995 0.03695279 0.08614901 -0.040886585 0.076459445
-0.024074458 -0.10695815 0.15496612 0.058950216 -0.27221298 -0.1892793 0.16066755 -0.26140812
-0.067038745 -0.32817295 0.033050094 -0.14173415 -0.30628595 -0.07037236 0.11179591 -0.0570379
0.016284686 -0.052375216 -0.08875432 0.0043685846 -0.101631545 -0.030295104 -0.13573535 -0.036752447
-0.07134597 0.00985181 -0.11937304 -0.21774533 0.16688685 0.13430554 -0.12083426 -0.119933434
0.034603287 0.053298723 -0.038040865 -0.011563689 0.1655692 -0.025070563 0.15586425 0.09880939
-0.043198243 -0.117037505 -0.23303156 0.17893682 0.03234364 0.038094334 0.046783455 -0.27560428
-0.23473181 -0.034122124 -0.03495046 -0.13195115 -0.15339313 -0.27045378 -0.17187367 0.003785489
-0.01131281 0.044059936 -0.26631844 -0.25051972 -0.117794126 0.01011408 0.1701913 0.025254956
-0.24586955 -0.07399562 -0.23923051 -0.039586876 0.0920727 -0.17056255 0.005926412 0.0013964577
0.12957692 0.06962114 0.059044413 0.016632546 -0.15207952 0.018945785 0.0552928 -0.069805466
00000000: b518 e23d 382f 063e a597 f83b 76b1 79bd
00000010: 7073 aabd b067 6a3e 1a75 583d 62da 073e
00000020: 6b62 32be bc19 60be 5371 723d c570 25be
00000030: 7748 8fbe f8d2 823d ec80 113e 8d90 b3bd
00000040: ec14 96bc 2465 773d cdc6 89bd a368 ca3d
00000050: 44b3 3d3d d62a 02be 146d 613e f3f8 c73b
00000060: 9c0e 8abd c2e3 f5bd 0bc9 a73e 47ef 2ebe
00000070: 5026 11be f5d5 3a3e 83a5 643c 0331 32be
00000080: 4a30 3abe 3d26 ef3d f51f a2bd 3348 97bd
00000090: 4be3 9cbd a6df a8bd bd39 613d 2fde 6a3d
000000a0: 0060 5cbe 3957 cfbd e39c 2dbd f823 93bd
000000b0: 4ac6 3abe 2d27 b9bc 494c 693e ed53 2fbc
000000c0: 0d20 953e 970b 7d3e 1af8 9ebd 24f9 983e
000000d0: 962e 41be 82c4 fc3d 14ac 3f3d 985c 6a3d
000000e0: 3ece 163e 533f 06be 66be 613d be27 033d
000000f0: 7f48 a1bd 7685 c23d f0d7 793e c520 8bbd
00000100: 6fe8 5f3d 5996 8fbd f4b5 42be 7d3a 88bd
00000110: 5db7 09be e1e7 c23c 0786 303b 2ad7 b7be
00000120: 13b2 26be e966 d6bd 43ac 6b3e 6b81 933c
00000130: 2b11 933d cfac a1bd 36e1 51bd 8b50 11be
00000140: 35e0 2ebe 2706 9bbd 342d a4bd fd7a da3d
00000150: 23bb bcbc c9ba 6a3c c6bd 28be e233 46bb
00000160: 8843 843d 204c 92bd a37c 573e 9395 9dbd
00000170: d8e1 423d c92b a23d 3828 9bbe a5c0 6abe
00000180: 1fba 8b3d 9a29 34bd 684a afbe 52d7 193d
00000190: 6754 7dbd 524b 15bd d3b3 d7bc b388 c4bc
000001a0: 6522 073d 317f c63d afdc 2f3d e9b1 3fbe
000001b0: af47 10be 75eb 3a3e eece 3dbe a795 40be
000001c0: 74cf d93c 6595 8fbd 63dd 32be 67e3 2f3d
000001d0: abb2 e33d fb9f 673e 6c13 513e 7f3b b83d
000001e0: 4362 663e 577d c53d 11cf b6be a6db b1bd
000001f0: 2a7e 9a3b 4206 3b3e 4e7d 5fbd 5005 a5bd
00000200: ac8c 7a3b a178 993c 75bd 023e 6689 f63c
00000210: 859a d3bd 9517 e3bd 3d38 c13d a031 51be
00000220: 3286 4b3e b5ab 37bc 95a3 8dbe cf6e 123d
00000230: 9f58 e23e 560b 0ebe aaf4 5abd c37e 1ebd
00000240: 8a4f 043e 99ad 903c f27a 71bd 5300 5cbb
00000250: 1950 b8bc 3c91 073e 7c2f cb3b 1944 873d
00000260: 8a82 a23d 2154 8dbc b861 88be 6893 233c
00000270: 2df7 89bd 812f 2cbe 4d84 80bd 605a b5bd
00000280: cf52 7dbe 7653 83be d5f6 013d c203 0abe
00000290: 1d19 3a3e 0755 6b3d d3e2 d23d 7fad 1a3d
000002a0: be34 dc3d bc6a 5ebe 7b6e 9f3b 930d f23d
000002b0: cf5b 173d e46e b03d b178 27bd c596 9c3d
000002c0: cc37 c5bc e00c dbbd 70af 1e3e c875 713d
000002d0: 805f 8bbe 6fd2 41be 0986 243e 49d7 85be
000002e0: 9c4b 89bd 4906 a8be 895f 073d c222 11be
000002f0: 83d1 9cbe 621f 90bd 41f5 e43d 93a0 69bd
00000300: 7667 853c 6587 56bd d3c4 b5bd 5826 8f3b
00000310: 3324 d0bd 702d f8bc 35fe 0abe bc89 16bd
00000320: d61d 92bd 7c69 213c da79 f4bd a2f8 5ebe
00000330: 63e4 2a3e 6487 093e f477 f7bd a99f f5bd
00000340: 2dbc 0d3d c34f 5a3d bdd0 1bbd a175 3dbc
00000350: f98a 293e c860 cdbc e19a 1f3e 945c ca3d
00000360: a4f0 30bd 5cb1 efbd d39f 6ebe 373b 373e
00000370: c47a 043d ce08 1c3d 02a0 3f3d 011c 8dbe
00000380: 895d 70be a4c3 0bbd 3728 0fbd 341e 07be
00000390: 1713 1dbe eb78 8abe a7ff 2fbe f715 783b
000003a0: 5d59 39bc 3178 343d e45a 88be 1f44 80be
000003b0: 0c3e f1bd 87b5 253c a146 2e3e 7be3 ce3c
000003c0: 3ac5 7bbe 048b 97bd d8f8 74be d925 22bd
000003d0: 9d90 bc3d f3a7 2ebe 5932 c23b 5809 b73a
000003e0: d0af 043e 8795 8e3d 8ed8 713d fa40 883c
000003f0: bcba 1bbe 3134 9b3c b47a 623d 2bf6 8ebd

conv3.bias f4 [32]
-0.09879021 0.05879884 -0.10982086 0.14347443 -0.02078783 -0.05710602 -0.107720405 -0.07479321
-0.1561068 -0.03063705 -0.04706415 0.0042820824 0.09530952 -0.009124237 -0.21086842 -0.08538819
0.04528392 -0.11074711 -0.023650104 -0.1966673 -0.09358799 -0.055702947 -0.08835958 -0.21299425
-0.06728731 -0.005081908 -0.1822767 -0.20415668 -0.14812379 -0.33160233 -0.04126025 -0.24499619
00000000: 8652 cabd 0dd7 703d c2e9 e0bd f6ea 123e
00000010: 3d4b aabc 01e8 69bd 849c dcbd 2f2d 99bd
00000020: 76da 1fbe 8dfa fabc 57c6 40bd b650 8c3b
00000030: a331 c33d d37d 15bc e4ed 57be 01e0 aebd
00000040: a27b 393d 61cf e2bd ddbd c1bc 2763 49be
00000050: 0fab bfbd c628 64bd def5 b4bd 2a1b 5abe
00000060: eecd 89bd 2286 a6bb bea6 3abe 730e 51be
00000070: c3ad 17be c8c7 a9be 8200 29bd 48e0 7abe

bn3.weight f4 [32]
1.1159979 0.93870807 1.0178529 1.0357379 1.0561552 0.96528727 0.90761554 1.0429277
1.0421621 0.9281574 1.003358 0.89970917 0.9560641 0.91443926 0.90097076 1.0443935
0.9206417 1.0367376 0.99147576 1.0040647 0.99743295 1.0441647 0.96469593 1.0646125
1.0032704 0.99408925 0.9506307 0.9972119 1.0081112 1.0964482 0.96987754 0.93682754
00000000: 05d9 8e3f 2c4f 703f 0149 823f 0f93 843f
00000010: 1830 873f 111d 773f 7e59 683f a87e 853f
00000020: 9165 853f b99b 6d3f 096e 803f 5753 663f
00000030: 9ec0 743f b118 6a3f 05a6 663f b0ae 853f
00000040: 2daf 6b3f d1b3 843f 5bd1 7d3f 3185 803f
00000050: c457 7f3f 30a7 853f 50f6 763f 3945 883f
00000060: 2a6b 803f a27c 7e3f 895c 733f 4749 7f3f
00000070: ca09 813f 6a58 8c3f e549 783f eed3 6f3f

bn3.bias f4 [32]
0.15173298 0.16853857 0.17026967 -0.047180355 0.117434464 0.26689106 0.19145958 -0.22933416
0.2449959 0.45789298 0.09296878 0.26542538 -0.10330194 0.083420284 -0.12670258 0.14113219
0.17806417 -0.12795338 -0.24419364 0.18269475 -0.12331339 0.16887784 0.16469648 -0.035340123
0.19042943 0.13480462 0.15136307 0.010191478 0.014209473 -0.087962605 -0.0938111 0.107329704
00000000: e45f 1b3e 6095 2c3e 2c5b 2e3e 3040 41bd
00000010: 7b81 f03d f2a5 883e fb0d 443e 93d6 6abe
00000020: 35e0 7a3e f370 ea3e 6a66 be3d d6e5 873e
00000030: f88f d3bd 41d8 aa3d 52be 01be f584 103e
00000040: 7456 363e 3606 03be e60d 7abe 5514 3b3e
00000050: bb8b fcbd 50ee 2c3e 32a6 283e cec0 10bd
00000060: efff 423e 390a 0a3e ecfe 1a3e 28fa 263c
00000070: d9ce 683c bd25 b4bd 0920 c0bd adcf db3d

bn3.running_mean f4 [32]
0.23119828 0.99944866 0.81314695 0.8804852 0.8418044 0.8757189 0.6169809 0.26871496
0.33732626 0.5478168 0.36022845 0.9097369 0.94826704 0.8056656 0.5298825 0.83669084
0.57795894 0.57992864 0.443036 0.4941773 0.4023344 0.5366776 0.69829905 0.8550173
0.5960375 0.9733227 0.2105916 0.22531158 0.66917133 0.29448676 0.73434657 0.43958348
00000000: 3ebf 6c3e dedb 7f3f 662a 503f 7a67 613f
00000010: 7e80 573f 1d2f 603f 76f2 1d3f 0295 893e
00000020: 07b6 ac3e b93d 0c3f dd6f b83e 84e4 683f
00000030: a1c1 723f 1a40 4e3f 61a6 073f 5f31 563f
00000040: 1ef5 133f 3476 143f 9dd5 e23e cf04 fd3e
00000050: c6fe cd3e b463 093f bac3 323f 6ae2 5a3f
00000060: ea95 183f ad2b 793f 53a5 573e 14b8 663e
00000070: d04e 2b3f f8c6 963e 23fe 3b3f 1611 e13e

bn3.running_var f4 [32]
0.28615835 1.2286226 2.4435353 0.8572397 1.9216164 2.7685492 1.0108882 0.25201875
0.5010031 0.5408149 0.93759495 1.4597843 0.9442963 1.8542291 0.6710897 1.0806454
0.6253569 0.8128538 0.90060663 0.8704254 0.74991035 1.0007089 1.4562634 0.9542838
0.5790276 1.7953842 0.21231738 0.2961571 1.2369225 0.5611111 1.4895884 0.72663665
00000000: 5983 923e 8143 9d3f e262 1c40 1074 5b3f
00000010: 87f7 f53f e92f 3140 c964 813f 9a08 813e
00000020: bd41 003f d872 0a3f 3906 703f 36da ba3f
00000030: 67bd 713f 6157 ed3f 89cc 2b3f 9752 8a3f
00000040: 6417 203f 3017 503f 288e 663f 33d4 5e3f
00000050: 20fa 3f3f 3b17 803f d766 ba3f f14b 743f
00000060: 273b 143f 26cf e53f ba69 593e e7a1 973e
00000070: 7a53 9e3f faa4 0f3f d5aa be3f dc04 3a3f

conv4.weight f4 [64, 32, 3, 3]
-0.16651705 -0.2144205 -0.0257944 -0.2888588 -0.2597711 -0.18726762 0.062105734 0.1247737
0.04453899 -0.007182401 -0.02858402 -0.17525041 0.024281595 -0.069558576 0.15384388 0.054449294
0.041323293 -0.051433165 -0.09535476 -0.19005248 -0.17352743 0.040450495 0.0711895 -0.06563547
0.012482987 0.005717327 -0.053491138 -0.21460867 -0.1896992 -0.29127157 0.13335551 -0.025855338
0.04801587 -0.015245046 -0.020133428 -0.025666058 0.04711343 -0.050465334 -0.08992448 0.06144332
0.055776216 -0.054689378 0.03969816 0.10119824 0.07337481 -0.09446862 -0.02987144 -0.003071743
-0.17252009 0.06812505 0.056347914 0.12993988 0.06197984 0.121403925 0.06011435 -0.017675767
0.18591727 -0.09833359 -0.04728456 -0.042544555 -0.1436808 -0.05217185 -0.045086525 -0.10109704
-0.029902501 -0.015261274 -0.14795966 0.0053238575 0.011453467 -0.051930506 -0.010710363 0.09232295
-0.090001225 0.013557314 -0.06510818 0.07048418 0.12427037 0.163402 0.00026410143 0.048680577
-0.021801997 -0.06964116 0.02436015 -0.18543577 -0.076523975 -0.039403316 -0.0633032 -0.06577598
-0.11169215 -0.056355435 0.0818762 0.10290608 0.15156195 -0.017244715 -0.08059804 0.11042861
-0.059000168 0.03533281 -0.020881627 -0.049332708 0.12348527 0.023960745 -0.033774797 0.047552895
0.07989243 0.05447712 0.06563999 -0.043195996 -0.071267694 0.036379118 -0.14385504 0.10351161
-1.8665802e-05 -0.057189357 0.07188457 0.07582686 0.08649605 -0.15277605 -0.024564125 0.13178614
0.13726267 0.07098662 0.040209092 -0.107316226 0.003084977 0.1546822 -0.0016047346 -0.019733002
0.029270923 -0.0022552817 0.0681145 0.14405173 -0.04897767 0.11456626 0.02605235 -0.112921216
-0.12312422 -0.123389184 0.12722866 -0.1330126 -0.06267983 -0.12249736 -0.09476003 0.04785453
-0.09305748 -0.053909037 0.00995643 -0.009273716 -0.020315055 -0.0169756 -0.1855516 -0.13222621
-0.15683366 -0.18800798 -0.13400304 0.025137667 -0.07477726 0.04089348 -0.011832604 -0.028659984
0.054801643 -0.17445768 0.03592077 0.0480703 -0.00566706 0.13474473 0.11133752 -0.04809686
-0.06357335 0.0020406202 0.0016294183 0.06909754 0.08719726 0.0750533 0.14104007 0.06657665
-0.051554423 0.048412487 0.09464546 -0.082530454 -0.18308458 -0.055753846 -0.06870275 -0.092957
-0.08027499 -0.08955385 -0.07098915 -0.0939375 -0.00865638 -0.15017635 -0.14504981 -0.028354058
0.09063763 -0.123656794 0.025542444 0.08444341 0.058777906 0.066957384 -0.0782839 -0.16720685
-0.104870446 -0.22920574 0.052443627 -0.033480506 -0.099442 0.106277786 0.06463173 -0.054504834
-0.051152945 0.17802408 -0.05877631 -0.10239439 -0.12373113 -0.0012023785 -0.1331067 0.13292879
-0.024531389 0.091163106 0.2159206 0.045968506 0.010162765 -0.003808695 -0.11404787 -0.07648424
-0.029188944 -0.018135479 0.018256674 0.13985813 0.10964451 0.03488698 -0.10025904 0.19830061
0.0017296652 0.17336178 -0.24462329 -0.2539209 -0.044626873 -0.12963046 -0.07806893 -0.0022224397
-0.14963914 -0.13112986 -0.043258194 -0.1712929 -0.109785385 -0.027108198 -0.0896341 -0.1860254
-0.017082773 -0.046098486 -0.077923864 -0.02551317 -0.03175597 0.08871309 0.052775424 0.041776653
00000000: 7283 2abe 0c91 5bbe c74e d3bc 4de5 93be
00000010: b800 85be 15c3 3fbe 9562 7e3d 5b89 ff3d
00000020: 846e 363d 595a ebbb 0929 eabc d874 33be
00000030: 32ea c63c ba74 8ebd 4089 1d3e 3906 5f3d
00000040: 9d42 293d 95ab 52bd 5b49 c3bd 1e9d 42be
00000050: 2db1 31be 6baf 253d cdcb 913d e46b 86bd
00000060: 7185 4c3c 6a58 bb3b 8619 5bbd 60c2 5bbe
00000070: 8240 42be 8c21 95be 598e 083e 93ce d3bc
00000080: 4aac 443d 5bc6 79bc dcee a4bc a041 d2bc
00000090: 03fa 403d bdb4 4ebd 532a b8bd feab 7b3d
000000a0: 9a75 643d f801 60bd 8a9a 223d 0641 cf3d
000000b0: 8845 963d c478 c1bd f3b4 f4bc 4c4f 49bb
000000c0: 1ba9 30be 2585 8b3d 12cd 663d f60e 053e
000000d0: 93de 7d3d 9fa2 f83d 773a 763d c5cc 90bc
000000e0: 1961 3e3e 1f63 c9bd 74ad 41bd 3343 2ebd
000000f0: 0f21 13be 26b2 55bd a6ac 38bd f70b cfbd
00000100: 17f6 f4bc 6c0a 7abc bd82 17be c173 ae3b
00000110: 53a7 3b3c 15b5 54bd 857a 2fbc d113 bd3d
00000120: 9052 b8bd 7f1f 5e3c 7057 85bd 025a 903d
00000130: 7781 fe3d db52 273e 1877 8a39 4965 473d
00000140: 1a9a b2bc 06a0 8ebd f08e c73c e0e2 3dbe
00000150: 9ab8 9cbd 5f65 21bd 1ca5 81bd 8fb5 86bd
00000160: dbbe e4bd f5d4 66bd b6ae a73d 6cc0 d23d
00000170: 0e33 1b3e ca44 8dbc 9610 a5bd 6528 e23d
00000180: 29aa 71bd 23b9 103d f20f abbc 1811 4abd
00000190: d8e5 fc3d 5349 c43c 7157 0abd d3c6 423d
000001a0: a49e a33d 6723 5f3d 426e 863d 49ee 30bd
000001b0: ccf4 91bd 4502 153d bc4e 13be e5fd d33d
000001c0: 8194 9cb7 633f 6abd 3838 933d 1d4b 9b3d
000001d0: d724 b13d 5371 1cbe b43a c9bc f2f2 063e
000001e0: 968e 0c3e 6f61 913d 4ab2 243d 9cc8 dbbd
000001f0: 532d 4a3b 0365 1e3e f555 d2ba 1ba7 a1bc
00000200: 93c9 ef3c 59cd 13bb 9d7f 8b3d 4c82 133e
00000210: cf9c 48bd b7a1 ea3d bd6b d53c 3d43 e7bd
00000220: 8d28 fcbd 78b3 fcbd 3b48 023e 7434 08be
00000230: 485e 80bd e5df fabd 8c11 c2bd 1d03 443d
00000240: ec94 bebd b9cf 5cbd 4b20 233c c9f0 17bc
00000250: c26b a6bc 6a10 8bbc 3d01 3ebe 4f66 07be
00000260: 0199 20be 2a85 40be 1838 09be 82ed cd3c
00000270: d224 99bd ec7f 273d 8add 41bc 58c8 eabc
00000280: b077 603d 09a5 32be a821 133d 5de5 443d
00000290: bfb2 b9bb 86fa 093e ed04 e43d 3701 45bd
000002a0: bf32 82bd edbb 053b 3592 d53a 0383 8d3d
000002b0: 7a94 b23d 8bb5 993d cf6c 103e 5759 883d
000002c0: bb2a 53bd 2c4c 463d 7bd5 c13d ba05 a9bd
000002d0: 867a 3bbe 255e 64bd 07b4 8cbd 3d60 bebd
000002e0: 3767 a4bd 0268 b7bd c262 91bd 4e62 c0bd
000002f0: 7dd3 0dbc d4c7 19be f087 14be c546 e8bc
00000300: 39a0 b93d c63f fdbd 633e d13c abf0 ac3d
00000310: 1ac1 703d f420 893d 4f53 a0bd 4638 2bbe
00000320: 51c6 d6bd e9b4 6abe 21cf 563d db22 09bd
00000330: 3fa8 cbbd 2ba8 d93d a45d 843d 7640 5fbd
00000340: c085 51bd f24b 363e 6ebf 70bd 26b4 d1bd
00000350: bf66 fdbd 2199 9dba 1f4d 08be 7c1e 083e
00000360: 0df6 c8bc b9b3 ba3d 4a1a 5d3e 7949 3c3d
00000370: ba81 263c 4c9b 79bb ee91 e9bd c5a3 9cbd
00000380: a71d efbc db90 94bc 058f 953c f836 0f3e
00000390: 4d8d e03d a6e5 0e3d 9d54 cdbd 510f 4b3e
000003a0: efb5 e23a c085 313e 877e 7abe ec01 82be
000003b0: abca 36bd d9bd 04be 9ae2 9fbd 5aa6 11bb
000003c0: 013b 19be e846 06be 812f 31bd 6867 2fbe
000003d0: 29d7 e0bd 0312 debc 1592 b7bd 717d 3ebe
000003e0: 2cf1 8bbc c4d1 3cbd 8c96 9fbd ff00 d1bc
000003f0: 8c12 02bd 35af b53d 0b2b 583d ff1d 2b3d

conv4.bias f4 [64]
-0.04232504 0.01642632 -0.16591364 -0.04524314 -0.1347915 -0.16103104 -0.033865586 -0.055616423
-0.10049126 -0.02794114 -0.06762652 -0.280932 -0.020411432 -0.0286396 -0.33566082 -0.098678224
0.027314713 -0.20978084 -0.099096484 -0.17222199 -0.15030138 -0.19560142 -0.13910851 0.007566994
-0.2245254 -0.0027745795 0.1818101 0.026243854 -0.25793347 -0.11697961 -0.25121826 -0.010573051
-0.03396167 -0.07574362 -0.07697319 -0.07822572 -0.22416927 -0.1719857 -0.18048537 -0.12120144
-0.22224885 0.016487943 -0.07555777 -0.08944164 0.017646333 -0.017016372 -0.06878561 0.008428032
-0.020186754 0.059146125 -0.17943673 -0.27023947 -0.12556753 -0.01116305 0.012329462 0.039865717
0.0048562265 -0.18676697 -0.010793668 -0.11496787 -0.0786938 0.042890746 -0.09044426 -0.21732013
00000000: 055d 2dbd 7d90 863c 44e5 29be df50 39bd
00000010: c806 0abe 52e5 24be a4b6 0abd 0cce 63bd
00000020: 5dce cdbd d1e4 e4bc c67f 8abd 52d6 8fbe
00000030: e035 a7bc 989d eabc bcdb abbe cf17 cabd
00000040: 1bc3 df3c cad0 56be 19f3 cabd f65a 30be
00000050: 9be8 19be bd4b 48be 7672 0ebe 8cf4 f73b
00000060: fde9 65be b8d5 35bb 6d2c 3a3e 5afd d63c
00000070: db0f 84be 0193 efbd ae9f 80be 973a 2dbc
00000080: 641b 0bbd 791f 9bbd 1fa4 9dbd ce34 a0bd
00000090: a18c 65be 051d 30be 28d1 38be 7638 f8bd
000000a0: 3495 63be b911 873c 08be 9abd 2e2d b7bd
000000b0: 0b8f 903c eb65 8bbc 78df 8cbd ba15 0a3c
000000c0: b15e a5bc 3543 723d 43be 37be d45c 8abe
000000d0: c694 00be 3ae5 36bc 8301 4a3c 3c4a 233d
000000e0: fb20 9f3b d73f 3fbe edd7 30bc 4674 ebbd
000000f0: 372a a1bd 35ae 2f3d d73a b9bd 2b89 5ebe

bn4.weight f4 [64]
1.403645 1.4690729 1.482179 1.3869209 1.5223505 1.4184659 1.4928424 1.441731
1.4279042 1.3529651 1.4480755 1.3929641 1.3391054 1.6824754 1.4645911 1.4296829
1.4229953 1.3977573 1.2329196 1.47475 1.1317723 1.4855002 1.3129117 1.4240065
1.4292271 1.3250319 1.4973892 1.5469433 1.4566226 1.3853074 1.4302185 1.4831874
1.3858732 1.6111232 1.5196011 1.4672004 1.4390715 1.5983741 1.5816829 1.6074542
1.5582424 1.3928943 1.2896628 1.3491997 1.3652043 1.3663158 1.3516047 1.5374326
1.4278874 1.2934269 1.4262826 1.466976 1.6071925 1.5776366 1.5189924 1.3284386
1.3515521 1.4109342 1.2832032 1.3934635 1.4365407 1.4510156 1.4979469 1.3700322
00000000: a4aa b33f 950a bc3f 0bb8 bd3f a086 b13f
00000010: 62dc c23f 4a90 b53f 7615 bf3f a48a b83f
00000020: 91c5 b63f f62d ad3f 8a5a b93f a64c b23f
00000030: ce67 ab3f 5b5b d73f b977 bb3f d9ff b63f
00000040: b624 b63f b6e9 b23f 4fd0 9d3f 9cc4 bc3f
00000050: eadd 903f df24 be3f 7e0d a83f d845 b63f
00000060: eaf0 b63f a59a a93f 73aa bf3f 3d02 c63f
00000070: 9c72 ba3f c151 b13f 6611 b73f 16d9 bd3f
00000080: 4b64 b13f 4939 ce3f 4a82 c23f 39cd bb3f
00000090: 7f33 b83f 8697 cc3f 9674 ca3f 0fc1 cd3f
000000a0: 7d74 c73f 5c4a b23f ac13 a53f 93b2 ac3f
000000b0: 04bf ae3f 70e3 ae3f 6201 ad3f 97ca c43f
000000c0: 04c5 b63f 038f a53f 6e90 b63f dfc5 bb3f
000000d0: 7cb8 cd3f ffef c93f 586e c23f 470a aa3f
000000e0: a9ff ac3f 7e99 b43f 0140 a43f 035d b23f
000000f0: 91e0 b73f e1ba b93f b9bc bf3f 375d af3f

bn4.bias f4 [64]
-0.07844581 0.11217425 -0.015302686 0.04319512 0.04490613 -0.098123774 0.017928092 -0.028267838
0.120823376 0.08411455 0.020866787 -0.09545089 -0.16024776 0.024948701 -0.11491424 -0.062318724
0.042849988 -0.13889477 -0.10168078 -0.07011028 0.043831196 -0.14435887 -0.035808716 -0.09539655
-0.19385187 -0.08456734 0.041528586 0.13624687 -0.033121105 0.109384984 -0.052995615 0.13960853
0.0056664115 -0.14273493 0.027413743 -0.018754551 0.13908984 0.13842358 0.17174762 0.20980778
-0.042575486 0.19516985 0.10846879 -0.03934946 -0.03770859 -0.21094644 -0.12484024 0.13677768
0.16934727 -0.059926618 0.10299949 0.1580381 0.091204315 0.16938743 0.13173723 -0.27534774
0.16235998 -0.09014138 -0.10698088 -0.055468794 -0.01658481 0.22274818 0.10551616 -0.13798235
00000000: 32a8 a0bd 9dbb e53d 1eb8 7abc 5eed 303d
00000010: 7def 373d 1ef5 c8bd efdd 923c f491 e7bc
00000020: 3f72 f73d 4044 ac3d d3f0 aa3c c27b c3bd
00000030: fd17 24be 3861 cc3c 2858 ebbd eb41 7fbd
00000040: 7883 2f3d 6e3a 0ebe 033e d0bd fa95 8fbd
00000050: 5788 333d d0d2 13be 29ac 12bd 445f c3bd
00000060: 1b81 46be a431 adbd e119 2a3d 4d84 0b3e
00000070: ffa9 07bd 3c05 e03d ee11 59bd 8af5 0e3e
00000080: 4ead b93b 1b29 12be c992 e03c 25a3 99bc
00000090: 916d 0e3e e9be 0d3e 9cde 2f3e dad7 563e
000000a0: a263 2ebd 9bda 473e e324 de3d e62c 21bd
000000b0: 5374 1abd 5802 58be 3dac ffbd 730f 0c3e
000000c0: 5f69 2d3e 9d75 75bd 66f1 d23d bdd4 213e
000000d0: 54c9 ba3d e673 2d3e 20e6 063e 61fa 8cbe
000000e0: b241 263e 0b9c b8bd cb18 dbbd 3f33 63bd
000000f0: dedc 87bc 1918 643e db18 d83d 3f4b 0dbe

bn4.running_mean f4 [64]
0.63151366 0.5267325 0.53092587 0.46141124 0.30390757 0.46682787 0.67157483 0.37122715
0.38228422 0.36531627 0.5002283 0.35146737 0.5998623 0.44294924 0.2885399 0.30278623
0.58408284 0.27400246 0.48624352 0.46303478 0.5232568 0.33596122 0.45007432 0.6808683
0.2626618 0.46814233 0.57533246 0.4750269 0.25788984 0.3818853 0.39206502 0.55963856
0.7342725 0.55465937 0.49217504 0.4972477 0.3089732 0.28596616 0.23198682 0.27655432
0.33259892 0.43242526 0.38266003 0.23122473 0.5866522 0.4171582 0.3521531 0.76328087
0.41679496 1.023178 0.64345545 0.4309173 0.32457358 0.4419027 0.54069906 0.9655963
0.6252996 0.33963123 0.5422315 0.33910513 0.47299004 0.7410419 0.719128 0.2885765
00000000: e1aa 213f f1d7 063f c2ea 073f 183e ec3e
00000010: c699 9b3e 1004 ef3e 54ec 2b3f 7c11 be3e
00000020: c2ba c33e bc0a bb3e f60e 003f 88f3 b33e
00000030: 9390 193f 3eca e23e 80bb 933e cc06 9b3e
00000040: 7486 153f 0d4a 8c3e e9f4 f83e e512 ed3e
00000050: 28f4 053f 1c03 ac3e 2470 e63e 634d 2e3f
00000060: 9c7b 863e 5ab0 ef3e fd48 133f ba36 f33e
00000070: 230a 843e 7886 c33e bfbc c83e 7944 0f3f
00000080: 48f9 3b3f 28fe 0d3f 5efe fb3e 4097 fe3e
00000090: bc31 9e3e 286a 923e f48d 6d3e 8798 8d3e
000000a0: 684a aa3e d866 dd3e 04ec c33e 2dc6 6c3e
000000b0: d72e 163f c295 d53e 694d b43e 6066 433f
000000c0: 2666 d53e 7ff7 823f 7fb9 243f 31a1 dc3e
000000d0: 822e a63e 1241 e23e 416b 0a3f 5231 773f
000000e0: a213 203f 25e4 ad3e afcf 0a3f 309f ad3e
000000f0: c02b f23e ecb4 3d3f c618 383f 4dc0 933e

bn4.running_var f4 [64]
0.9645741 0.79013914 0.8273262 0.8554946 0.34800228 1.021922 1.2548085 0.54741013
0.9259072 0.45761365 0.9206329 0.5568811 0.8853671 0.8412648 0.50542367 0.40054777
0.7847853 0.3564345 0.7574089 1.1273988 0.9034672 0.61175257 0.8539155 1.3360356
0.41479227 0.7551646 0.80645347 0.6186266 0.4037785 0.5128823 0.71447724 0.75564194
1.102053 1.0150797 0.74884516 1.2659558 0.4516499 0.515358 0.2928746 0.45730954
0.55190945 0.7026341 0.5160788 0.38213637 0.77004385 0.7500569 0.47691014 1.0367092
0.5463431 2.079139 0.9816231 0.628922 0.5681046 0.79154533 0.88791114 1.368269
0.88364035 0.5548265 0.9477556 0.46365938 0.8953433 1.1906251 1.2462775 0.3859539
00000000: 54ee 763f 8f46 4a3f a6cb 533f b201 5b3f
00000010: 5b2d b23e 57ce 823f 919d a03f 1223 0c3f
00000020: 4108 6d3f 564c ea3e 99ae 6b3f c38f 0e3f
00000030: 6ba7 623f 215d 573f 7263 013f 9914 cd3e
00000040: b0e7 483f 957e b63e 8de5 413f 9b4e 903f
00000050: a049 673f d19b 1c3f 359a 5a3f 3703 ab3f
00000060: a75f d43e 7852 413f bc73 4e3f 505e 1e3f
00000070: 0ebc ce3e 414c 033f fbe7 363f c071 413f
00000080: 1310 8d3f 22ee 813f 51b4 3f3f d70a a23f
00000090: a83e e73e 80ee 033f a9f3 953e 7a24 ea3e
000000a0: f049 0d3f d4df 333f be1d 043f 61a7 c33e
000000b0: 9821 453f bb03 403f 912d f43e e3b2 843f
000000c0: 24dd 0b3f 9d10 0540 a74b 7b3f 0801 213f
000000d0: 4e6f 113f b7a2 4a3f 254e 633f 7023 af3f
000000e0: 4136 623f 1c09 0e3f 1ca0 723f c364 ed3e
000000f0: 3835 653f 6766 983f 0586 9f3f c09b c53e

lin.weight f4 [10, 64]
-0.16978306 0.17015707 0.23925905 -0.037477992 0.2776461 0.12544148 0.1431865 -0.25309205
-0.18847018 0.22820973 -0.22250818 0.28648123 -0.1470711 -0.15579017 -0.22668573 0.24090792
0.017936228 0.3226371 0.05905198 0.31561622 0.18049331 -0.27514097 -0.1854402 -0.037962895
-0.101704255 -0.19844101 0.02298398 -0.15059845 0.31718105 -0.11454157 0.20622548 0.17368366
-0.10043581 -0.042669028 -0.3661859 -0.17403702 -0.022547206 0.008649804 0.41046682 -0.47208285
0.010647358 0.14719053 0.3035462 0.024104962 -0.17281546 -0.13130711 0.24490868 -0.15857323
-0.22485976 -0.015736748 0.3212545 0.27105078 -0.324222 0.093814276 -0.2939947 -0.18239069
0.23267111 0.11528949 -0.2509371 0.03418344 -0.2190921 0.12567481 0.048090167 0.35474792
0.029129848 -0.11967806 -0.27841336 -0.3048238 -0.13809054 0.33069736 0.054043036 -0.13736105
-0.39386374 -0.07182502 0.10301131 0.0881561 0.15506399 0.29358068 0.21884356 -0.036024287
-0.07368647 0.0508953 -0.026958846 -0.056201372 -0.018089475 0.12624265 0.06031725 0.17980683
0.3205002 0.27889827 0.28860718 -0.060894247 -0.06087514 -0.16472583 -0.11854163 -0.2719039
0.16178536 0.047639284 -0.23380838 -0.36738768 -0.12416815 -0.20063247 -0.32266012 -0.29748124
0.24392784 0.019877076 -0.11620575 0.22864269 -0.0046150326 0.29234868 0.22864449 -0.45449314
-0.3251171 0.023122242 0.044988234 -0.19400202 0.007490461 0.1522594 -0.20956388 0.3086804
0.037366237 -0.063841194 0.22970672 0.009757238 0.17554674 -0.34376988 -0.23112367 0.0072311894
-0.22246434 -0.14834048 0.02382053 0.16073048 -0.22377628 -0.38041702 -0.06981883 0.23643135
-0.23794547 -0.13372217 -0.13632622 -0.18424729 -0.13224284 0.22551957 -0.16818564 0.01197274
0.056356054 -0.109417565 -0.11213312 -0.27352473 -0.014097502 -0.23720528 -0.21274759 -0.2871775
-0.21343215 0.13228893 0.07787598 0.26080608 -0.06327902 0.044840276 -0.0072986 -0.041291237
0.26673824 -0.1464644 0.07506619 -0.20110218 0.17648053 0.11320415 -0.056974392 0.24383265
-0.11581645 0.2416374 0.045010995 -0.1770336 0.29301536 -0.06001818 0.15150106 0.22072744
0.16512391 -0.22599357 0.025102584 -0.15059042 0.15610765 0.23103592 0.27005893 -0.22307274
0.08516763 -0.12820701 0.04066525 -0.11984168 -0.27474967 0.24706759 0.08385713 -0.19435471
-0.30127493 -0.24239849 0.17919338 0.22828041 -0.12261154 -0.14814954 -0.20901354 0.12336001
-0.243054 -0.14760573 -0.11609584 0.2129706 0.18246672 0.11112018 0.1907138 -0.027378846
-0.33715492 -0.060948707 0.24103864 -0.08985836 -0.03497387 0.07177511 0.13175167 0.10035908
0.038155645 -0.085918725 -0.06305894 -0.19529961 -0.30081582 -0.21260294 0.095318414 -0.21341857
-0.035168663 0.13594216 0.2524037 -0.34538028 0.31467474 0.3638973 0.23972602 0.16157044
-0.26001737 -0.17087372 -0.056703147 0.27682927 0.17496702 -0.19712892 -0.077885225 0.14965813
0.19214481 0.12033186 -0.014922196 0.24522547 0.3431644 0.069496796 0.2598847 -0.084099315
-0.04964967 -0.12289 0.19923817 -0.013705541 -0.07474957 0.03468181 -0.15240557 -0.0982373
00000000: 9cdb 2dbe a83d 2e3e 5300 753e 8682 19bd
00000010: a127 8e3e bb73 003e 7b9f 123e 4895 81be
00000020: 54fe 40be d0af 693e 2fd9 63be abad 923e
00000030: ce99 16be 7587 1fbe 4e20 68be 91b0 763e
00000040: ffee 923c b130 a53e 7de0 713d 7398 a13e
00000050: 3dd3 383e 47df 8cbe 09e4 3dbe fb7e 1bbd
00000060: 524a d0bd 1f34 4bbe e648 bc3c 7b36 1abe
00000070: 8e65 a23e c594 eabd c62c 533e 21da 313e
00000080: 4ab1 cdbd b8c5 2ebd b87c bbbe c336 32be
00000090: ebb4 b8bc e8b7 0d3c b528 d23e d8b4 f1be
000000a0: 4272 2e3c 1db9 163e 686a 9b3e c577 c53c
000000b0: 89f6 30be 5f75 06be 57c9 7a3e 0561 22be
000000c0: a341 66be 5aea 80bc 787b a43e 2bc7 8a3e
000000d0: 6d00 a6be b321 c03d 7986 96be a0c4 3abe
000000e0: 5641 6e3e e51c ec3d d47a 80be ef03 0c3d
000000f0: ae59 60be e6b0 003e 32fa 443d 85a1 b53e
00000100: b8a1 ee3c c519 f5bd 328c 8ebe dd11 9cbe
00000110: 9b67 0dbe 2a51 a93e 3b5c 5d3d 60a8 0cbe
00000120: 82a8 c9be ff18 93bd 98f7 d23d 2f8b b43d
00000130: 18c9 1e3e 3550 963e 8718 603e 348e 13bd
00000140: efe8 96bd 9777 503d ccd8 dcbc 6933 66bd
00000150: 6130 94bc c145 013e 390f 773d 481f 383e
00000160: 9a18 a43e c1cb 8e3e 52c4 933e 3f6c 79bd
00000170: 3658 79bd e3ad 28be f4c5 f2bd fd36 8bbe
00000180: 10ab 253e 6921 433d 776b 6fbe 3d1a bcbe
00000190: df4b febd 9972 4dbe b533 a5be 764f 98be
000001a0: 38c8 793e 40d5 a23c 48fd edbd 4f21 6a3e
000001b0: b339 97bb baae 953e c821 6a3e 53b3 e8be
000001c0: c075 a6be db6a bd3c 9545 383d 77a8 46be
000001d0: 8b72 f53b e3e9 1b3e ea97 56be 5b0b 9e3e
000001e0: 570d 193d 2cbf 82bd 3d38 6b3e d3dc 1f3c
000001f0: 86c2 333e 9b02 b0be afab 6cbe 9df3 ec3b
00000200: b1cd 63be 91e6 17be 4623 c33c 8896 243e
00000210: 9c25 65be 05c6 c2be 2dfd 8ebd 0f1b 723e
00000220: faa7 73be 77ee 08be 1a99 0bbe 52ab 3cbe
00000230: ab6a 07be 9aee 663e db38 2cbe 5029 443c
00000240: 9bd5 663d 5116 e0bd 0da6 e5bd 6f0b 8cbe
00000250: 36f9 66bc f1e5 72be 81da 59be ee08 93be
00000260: f58d 5abe c076 073e 717d 9f3d 6088 853e
00000270: 6e98 81bd 70aa 373d 1829 efbb 0021 29bd
00000280: ea91 883e c4fa 15be 4dbc 993d bbed 4dbe
00000290: 50b7 343e 94d7 e73d fb5d 69bd 44af 793e
000002a0: 2d31 edbd cb6f 773e 735d 383d 4c48 35be
000002b0: 1c06 963e a0d5 75bd 1823 1b3e 6006 623e
000002c0: 3e16 293e dc6a 67be efa3 cd3c 6034 1abe
000002d0: afda 1f3e ae94 6c3e 2a45 8a3e 2e6d 64be
000002e0: 5e6c ae3d b348 03be 9b90 263d 8e6f f5bd
000002f0: fdab 8cbe 49ff 7c3e 49bd ab3d ec04 47be
00000300: b540 9abe 4f37 78be 787e 373e 57c2 693e
00000310: c21b fbbd 83b4 17be a507 56be 2ca4 fc3d
00000320: 26e3 78be f525 17be a8c3 edbd f714 5a3e
00000330: 8ed8 3a3e fa92 e33d 7a4a 433e 9a49 e0bc
00000340: 929f acbe 5aa5 79bd d5d2 763e a907 b8bd
00000350: c340 0fbd d4fe 923d e9e9 063e 1089 cd3d
00000360: 1849 1c3d 28f6 afbd 0c25 81bd 9ffc 47be
00000370: 8804 9abe 96b4 59be 4d36 c33d 668a 5abe
00000380: 040d 10bd 6c34 0b3e 0f3b 813e afd5 b0be
00000390: 0c1d a13e bf50 ba3e bd7a 753e b972 253e
000003a0: ff20 85be 85f9 2ebe 8f41 68bd 91bc 8d3e
000003b0: 8e2a 333e 2adc 49be 4a82 9fbd fb3f 193e
000003c0: 9cc1 443e 8d70 f63d 3a7c 74bc 631c 7b3e
000003d0: 3fb3 af3e 5654 8e3d 9b0f 853e 433c acbd
000003e0: 745d 4bbd c1ad fbbd 1705 4c3e 358d 60bc
000003f0: 4d16 99bd 830e 0e3d 3510 1cbe a330 c9bd

lin.bias f4 [10]
0.14850703 -0.15519285 -0.055184018 0.09902388 0.13297477 0.0234453 -0.2932666 0.050113358
0.024083974 0.035622437
00000000: 3a12 183e e0ea 1ebe a308 62bd 08cd ca3d
00000010: 8a2a 083e 5c10 c03c 0a27 96be aa43 4d3d
00000020: c14b c53c d5e8 113d
